model.pth (torch, 5492 bytes, 6 tensors)

layers.0.weight f4 [30, 2]
-0.30912054 0.10466038 -0.35521087 0.28272676 -0.60393995 0.5245711 -0.5139537 -0.5621795
-0.46226442 0.38107023 -0.2791432 0.33489454 -0.6001423 -0.4290184 -0.25963268 -0.13896042
-0.53226775 0.43525687 -0.17857535 0.27365872 0.5024661 0.107563555 0.13645038 0.7399722
-0.3291955 0.26446596 -0.3305836 0.567718 0.61774766 -0.67878634 0.51208717 0.38638854
0.24444829 0.31785357 0.6392063 -0.12027718 -0.5988119 -0.20080373 -0.51042664 0.0951309
-0.030711442 -0.4296179 -0.075021416 0.7119119 0.018832816 -0.055874728 -0.13083287 0.1918643
0.61242074 0.48408106 0.26337075 0.13945256 0.14080477 0.37517193 -0.07955548 -0.663855
-0.43922308 0.6109515 0.074537486 -0.5910854
00000000: 0c45 9ebe 2e58 d63d 33de b5be 90c1 903e
00000010: cf9b 1abf 4b4a 063f 7892 03bf ffea 0fbf
00000020: ecad ecbe a31b c33e dceb 8ebe 4c77 ab3e
00000030: eda2 19bf 4da8 dbbe 93ee 84be a44b 0ebe
00000040: b342 08bf fdd9 de3e 75dc 36be ff1c 8c3e
00000050: 9ea1 003f 484a dc3d a6b9 0b3e d16e 3d3f
00000060: 508c a8be 1568 873e 4142 a9be f855 113f
00000070: b624 1e3f f1c4 2dbf 2518 033f b8d4 c53e
00000080: a750 7a3e b4bd a23e 06a3 233f e253 f6bd
00000090: bd4b 19bf 7e9f 4dbe 52ab 02bf fdd3 c23d
000000a0: 9096 fbbc e1f6 dbbe d4a4 99bd dc3f 363f
000000b0: 4747 9a3c e6dc 64bd 0df9 05be 1378 443e
000000c0: 9bc7 1c3f 79d9 f73e 88d8 863e a7cc 0e3e
000000d0: 202f 103e 8916 c03e fced a2bd 67f2 29bf
000000e0: d9e1 e0be 5167 1c3f 1ca7 983d 5f51 17bf

layers.0.bias f4 [30]
0.14105129 0.59014004 -0.6659 -0.4760521 -0.25947845 0.053961307 -0.16491807 -0.07770479
-0.699405 0.34812847 0.6087217 0.4237799 -0.48598483 -0.54734176 0.31542668 -0.021062525
0.26015848 -0.6705521 -0.0414825 0.51625335 0.37051344 0.041088104 0.14828666 -0.0375991
-0.37279463 -0.26606175 -0.39350665 0.5916257 0.391786 0.25895318
00000000: c06f 103e 6b13 173f 6c78 2abf 1abd f3be
00000010: 5cda 84be 8806 5d3d 48e0 28be b023 9fbd
00000020: 350c 33bf e53d b23e 2fd5 1b3f aef9 d83e
00000030: 01d3 f8be 971e 0cbf 9b7f a13e 518b acbc
00000040: 7e33 853e 4da9 2bbf 8ee9 29bd 2e29 043f
00000050: f0b3 bd3e 004c 283d 75d8 173e 8401 1abd
00000060: f0de bebe 3f39 88be b479 c9be c874 173f
00000070: 2d98 c83e 8395 843e

layers.2.weight f4 [20, 30]
-0.17654061 -0.010354564 -0.05676426 0.12630385 -0.16000341 -0.052113563 0.1782622 0.122810185
0.05344762 -0.14204049 0.31757808 -0.34607393 -0.016925853 -0.20337036 0.34109807 0.03700117
0.010750983 0.29786852 0.09038955 -0.095156245 0.222098 -0.27862644 0.09277435 -0.047487587
0.018567938 0.050593592 -0.15959695 0.19753547 -0.16641769 0.30958766 -0.05774929 0.06230913
0.17966199 -0.07831867 0.17139801 -0.092760645 0.080477774 0.07152346 0.048668925 0.14204499
-0.074913435 0.04340769 0.00012777594 -0.1397424 -0.04433155 -0.12284644 0.078977525 0.016412675
0.017884174 -0.057607036 0.0008779168 -0.060936853 0.051945414 0.17657498 0.027041972 -0.08086545
-0.11196441 0.013955787 -0.14062248 -0.13723192 -0.11740292 -0.06444051 0.012111276 0.1257227
0.07120266 0.13983588 -0.11463785 0.0154071 -0.16503124 0.10457065 -0.052721154 0.16907176
-0.1296202 0.14696082 0.027925432 0.091834895 -0.011726136 0.12427749 0.122002475 0.1358717
-0.03599067 -0.1416099 -0.0073358994 0.036436144 -0.15097001 -0.113069646 -0.1722883 -0.124113694
0.15534034 -0.022036292 -0.011151642 0.0073318183 0.11384335 -0.1612246 -0.14087234 -0.060700513
-0.105074756 0.09416905 0.12900391 -0.17713818 -0.154947 -0.177794 0.06887692 0.14694566
-0.14155708 -0.084523894 0.058098868 -0.11921826 0.15509304 0.04256922 -0.050825655 0.011858299
0.056920886 -0.06456063 -0.14146867 0.0012272 0.0033255816 0.0036816448 -0.026643097 0.117226034
-0.050949007 -0.017671853 0.07507226 -0.11491901 0.048885807 -0.040370017 0.087576 -0.09903999
0.006747633 0.017861113 -0.14689855 -0.1327574 0.07001963 -0.053139403 0.10843018 -0.1803582
-0.09025165 -0.1503794 0.07293317 -0.0052930713 -0.034053996 -0.030375108 -0.1427089 0.051777124
0.0045508146 -0.1259968 0.06870043 -0.00366956 -0.17657618 0.098210335 0.14130923 0.12066063
-0.008396881 0.007330358 0.23378102 0.26460984 -0.13780719 -0.08246309 0.23305851 0.20028709
0.002008515 0.11954444 0.19289275 -0.040517412 -0.25367576 -0.048524536 0.0485746 -0.21874264
0.16765425 0.27970308 -0.17290728 0.201166 -0.08557392 0.2147338 0.08977338 0.09164512
0.08880068 -0.13481283 0.33618304 -0.100222796 -0.06658758 0.09426454 0.057292923 -0.04730764
-0.050035566 -0.16145757 -0.05004695 -0.07396339 -0.09951185 -0.16490436 0.116756484 -0.16624308
0.18124405 -0.09576432 -0.044313084 0.1299677 0.0465702 -0.061415266 -0.14698261 -0.07464643
0.14403534 -0.06894179 0.15376738 -0.0314423 -0.030070068 0.07150573 -0.026826411 -0.016874554
0.12644961 0.047036693 0.026303813 0.19217542 0.25185427 0.046016052 0.021492476 0.13626404
-0.015973315 -0.14274088 0.0019814917 0.17016004 0.055812966 0.2421859 -0.07906774 0.25822383
-0.07619232 0.083479695 -0.01804782 -0.0880613 0.08185076 0.027788837 -0.11579494 0.078455314
0.14704414 0.14000244 0.1437514 -0.15562621 0.10817817 0.04558158 0.0618439 0.005771309
0.01746136 -0.17748934 -0.13649578 0.14892396 -0.060729917 -0.049283598 -0.11555046 -0.10917245
0.11961211 0.013873298 -0.06084118 0.0015636608 -0.103915736 -0.21170451 -0.1812583 0.047842897
00000000: 10c7 34be 30a6 29bc a481 68bd cc55 013e
00000010: efd7 23be 0875 55bd 5e8a 363e e883 fb3d
00000020: e4eb 5a3d 1073 11be 9899 a23e 9a30 b1be
00000030: 16a8 8abc 5240 50be 68a4 ae3e 8a8e 173d
00000040: e424 303c 3982 983e 281e b93d 47e1 c2bd
00000050: a86d 633e 20a8 8ebe 7a00 be3d 5882 42bd
00000060: ca1b 983c 3a3b 4f3d 626d 23be bd46 4a3e
00000070: 6669 2abe 4682 9e3e 858a 6cbd dc37 7f3d
00000080: 50f9 373e 8a65 a0bd f682 2f3e 4bf9 bdbd
00000090: 88d1 a43d e47a 923d 1159 473d 3e74 113e
000000a0: 376c 99bd 43cc 313d 98fb 0539 a218 0fbe
000000b0: 0095 35bd ea96 fbbd f8be a13d e073 863c
000000c0: d581 923c 5bf5 6bbd 0024 663a ec98 79bd
000000d0: b7c4 543d 12d0 343e 2087 dd3c c99c a5bd
000000e0: 994d e5bd d0a6 643c 57ff 0fbe 8686 0cbe
000000f0: f170 f0bd 63f9 83bd 606e 463c 74bd 003e
00000100: b3d2 913d 2331 0f3e 40c7 eabd 106e 7c3c
00000110: f3fd 28be 2329 d63d 23f2 57bd 2621 2d3e
00000120: 28bb 04be e67c 163e e0c3 e43c ef13 bc3d
00000130: fb1e 40bc 3285 fe3d 6fdc f93d f321 0b3e
00000140: f46a 13bd 3002 11be fc61 f0bb 113e 153d
00000150: e297 1abe 0f91 e7bd 586c 30be 522f febd
00000160: 8a11 1f3e 7485 b4bc 60b5 36bc c03f f03b
00000170: b426 e93d 1018 25be d740 10be 1aa1 78bd
00000180: 6f31 d7bd b4db c03d 9a19 043e b663 35be
00000190: 6daa 1ebe a10f 36be 580f 8d3d ec78 163e
000001a0: 57f4 10be dd1a adbd 14f9 6d3d b428 f4bd
000001b0: b6d0 1e3e 105d 2e3d 902e 50bd 5049 423c
000001c0: e025 693d 5d38 84bd 2add 10be 00da a03a
000001d0: 00f2 593b c047 713b a042 dabc 3414 f03d
000001e0: e8af 50bd 90c4 90bc 7cbf 993d a85a ebbd
000001f0: 7c3c 483d 085b 25bd 0c5b b33d 7ad5 cabd
00000200: 401b dd3b 7851 923c 936c 16be 8ef1 07be
00000210: 7466 8f3d b4a8 59bd a410 de3d d2af 38be
00000220: dbd5 b8bd 0ffd 19be fc5d 953d 8071 adbb
00000230: 347c 0bbd 38d5 f8bc 4822 12be 4014 543d
00000240: 001f 953b 4e05 01be d0b2 8c3d 007d 70bb
00000250: 63d0 34be 8022 c93d 5eb3 103e ec1c f73d
00000260: 1293 09bc 8033 f03b 4b64 6f3e f17a 873e
00000270: 541d 0dbe 69e2 a8bd e4a6 6e3e 0f18 4d3e
00000280: 4aa1 033b b7d3 f43d ad85 453e 96f5 25bd
00000290: cae1 81be aac1 46bd 29f6 463d 12fe 5fbe
000002a0: 8ead 2b3e 3e35 8f3e 9b0e 31be 76fe 4d3e
000002b0: 6141 afbd 2de3 5b3e 1bdb b73d 70b0 bb3d
000002c0: 22dd b53d 600c 0abe 2f20 ac3e 9c41 cdbd
000002d0: 125f 88bd c40d c13d fcab 6a3d a8c5 41bd
000002e0: 18f2 4cbd 2255 25be 08fe 4cbd 1e7a 97bd
000002f0: decc cbbd b0dc 28be 061e ef3d a03b 2abe
00000300: 0a98 393e 1520 c4bd a381 35bd 4116 053e
00000310: 65c0 3e3d 938e 7bbd 9c82 16be 3ae0 98bd
00000320: 007e 133e 5a31 8dbd 3275 1d3e a4c9 00bd
00000330: 8155 f6bc 9971 923d 10c3 dbbc 813c 8abc
00000340: 027c 013e 8ca9 403d 187b d73c a2c9 443e
00000350: 0bf3 803e 547b 3c3d fd10 b03c cd88 0b3e
00000360: 78da 82bc aa2a 12be eadb 013b 6f3e 2e3e
00000370: 239c 643d 95ff 773e 44ee a1bd ea35 843e
00000380: b80a 9cbd 67f7 aa3d 06d9 93bc 7c59 b4bd
00000390: 5fa1 a73d 6aa5 e33c e625 edbd 2ead a03d
000003a0: bd92 163e cd5c 0f3e 9133 133e 7a5c 1fbe
000003b0: 848c dd3d c0b3 3a3d 0750 7d3d 401d bd3b
000003c0: 200b 8f3c c4bf 35be 8dc5 0bbe 867f 183e
000003d0: efbf 78bd 99dd 49bd b8a5 ecbd ce95 dfbd
000003e0: 32f7 f43d d44c 633c 9a34 79bd c0f3 cc3a
000003f0: c6d1 d4bd 11c9 58be c79b 39be eaf6 433d

layers.2.bias f4 [20]
0.15252052 -0.08059465 -0.20091441 -0.12918656 0.086749285 -0.016799005 0.117304385 0.062757894
-0.046880223 0.10349656 0.06751179 -0.12923656 0.02575229 -0.0052125603 -0.1200984 0.06926114
0.08520595 -0.07749059 -0.13725142 0.07728481
00000000: 572e 1c3e cf0e a5bd 82bc 4dbe 7b49 04be
00000010: 9ca9 b13d 119e 89bc 483d f03d 3687 803d
00000020: 7a05 40bd 01f6 d33d 9f43 8a3d 9756 04be
00000030: 77f6 d23c 20ce aabb 26f6 f5bd c9d8 8d3d
00000040: 7580 ae3d 63b3 9ebd a38b 0cbe 8047 9e3d

layers.4.weight f4 [2, 20]
-0.4771363 0.049377304 -0.026113974 0.037363887 0.044561 0.37890622 -0.2163066 0.16997218
-0.103180945 0.22898951 -0.07426245 0.19481602 0.050986975 -0.03978236 -0.09485434 0.2974914
-0.14254512 -0.10263603 0.022909103 -0.1448058 0.45939353 0.05626272 -0.20625049 -0.22039184
0.097547054 -0.40816295 -0.0718022 -0.39130133 0.05491458 -0.16454455 0.09028591 -0.21460602
0.23725474 -0.19051667 0.030282438 -0.301207 -0.15977667 -0.006315101 -0.34360176 0.18610796
00000000: 364b f4be db3f 4a3d f9ec d5bc e00a 193d
00000010: 9885 363d ffff c13e 7a7f 5dbe 300d 2e3e
00000020: 8850 d3bd 3a7c 6a3e e916 98bd da7d 473e
00000030: b8d7 503d d4f2 22bd fe42 c2bd cb50 983e
00000040: 59f7 11be d732 d2bd dfab bb3c f947 14be
00000050: a135 eb3e bd73 663d 5433 53be 66ae 61be
00000060: c0c6 c73d bcfa d0be 080d 93bd a658 c8be
00000070: 1cee 603d 5e7e 28be d2e7 b83d aec1 5bbe
00000080: e8f2 723e cd16 43be e012 f83c ce37 9abe
00000090: 7f9c 23be e8ee cebb 92ec afbe 1693 3e3e

layers.4.bias f4 [2]
-0.1296917 0.13984121
00000000: e7cd 04be 8932 0f3e
